{"config": {"output_layers": [["dense_6", 0, 0]], "input_layers": [["input_7", 0, 0]], "name": "functional_13", "layers": [{"config": {"name": "input_7", "sparse": false, "dtype": "float32", "ragged": false, "batch_input_shape": [null, 784, 1]}, "inbound_nodes": [], "class_name": "InputLayer", "name": "input_7"}, {"config": {"kernel_regularizer": null, "name": "conv1d_88", "data_format": "channels_last", "strides": [1], "dtype": "float32", "kernel_initializer": {"config": {"mean": 0.0, "seed": 42, "stddev": 0.01}, "class_name": "RandomNormal"}, "activation": "linear", "activity_regularizer": null, "bias_initializer": {"config": {}, "class_name": "Zeros"}, "filters": 64, "kernel_size": [3], "use_bias": true, "padding": "causal", "bias_regularizer": null, "groups": 1, "bias_constraint": null, "dilation_rate": [1], "trainable": true, "kernel_constraint": null}, "inbound_nodes": [[["input_7", 0, 0, {}]]], "class_name": "Conv1D", "name": "conv1d_88"}, {"config": {"momentum": 0.99, "moving_mean_initializer": {"config": {}, "class_name": "Zeros"}, "scale": true, "epsilon": 0.001, "name": "batch_normalization_82", "beta_constraint": null, "moving_variance_initializer": {"config": {}, "class_name": "Ones"}, "gamma_initializer": {"config": {}, "class_name": "Ones"}, "dtype": "float32", "center": true, "axis": [2], "gamma_regularizer": null, "beta_regularizer": null, "trainable": true, "beta_initializer": {"config": {}, "class_name": "Zeros"}, "gamma_constraint": null}, "inbound_nodes": [[["conv1d_88", 0, 0, {}]]], "class_name": "BatchNormalization", "name": "batch_normalization_82"}, {"config": {"trainable": true, "dtype": "float32", "name": "activation_123", "activation": "relu"}, "inbound_nodes": [[["batch_normalization_82", 0, 0, {}]]], "class_name": "Activation", "name": "activation_123"}, {"config": {"noise_shape": null, "name": "dropout_82", "dtype": "float32", "trainable": true, "rate": 0.2, "seed": null}, "inbound_nodes": [[["activation_123", 0, 0, {}]]], "class_name": "Dropout", "name": "dropout_82"}, {"config": {"kernel_regularizer": null, "name": "conv1d_89", "data_format": "channels_last", "strides": [1], "dtype": "float32", "kernel_initializer": {"config": {"mean": 0.0, "seed": 42, "stddev": 0.01}, "class_name": "RandomNormal"}, "activation": "linear", "activity_regularizer": null, "bias_initializer": {"config": {}, "class_name": "Zeros"}, "filters": 64, "kernel_size": [3], "use_bias": true, "padding": "causal", "bias_regularizer": null, "groups": 1, "bias_constraint": null, "dilation_rate": [1], "trainable": true, "kernel_constraint": null}, "inbound_nodes": [[["dropout_82", 0, 0, {}]]], "class_name": "Conv1D", "name": "conv1d_89"}, {"config": {"momentum": 0.99, "moving_mean_initializer": {"config": {}, "class_name": "Zeros"}, "scale": true, "epsilon": 0.001, "name": "batch_normalization_83", "beta_constraint": null, "moving_variance_initializer": {"config": {}, "class_name": "Ones"}, "gamma_initializer": {"config": {}, "class_name": "Ones"}, "dtype": "float32", "center": true, "axis": [2], "gamma_regularizer": null, "beta_regularizer": null, "trainable": true, "beta_initializer": {"config": {}, "class_name": "Zeros"}, "gamma_constraint": null}, "inbound_nodes": [[["conv1d_89", 0, 0, {}]]], "class_name": "BatchNormalization", "name": "batch_normalization_83"}, {"config": {"trainable": true, "dtype": "float32", "name": "activation_124", "activation": "relu"}, "inbound_nodes": [[["batch_normalization_83", 0, 0, {}]]], "class_name": "Activation", "name": "activation_124"}, {"config": {"kernel_regularizer": null, "name": "conv1d_90", "data_format": "channels_last", "strides": [1], "dtype": "float32", "kernel_initializer": {"config": {"mean": 0.0, "seed": 42, "stddev": 0.01}, "class_name": "RandomNormal"}, "activation": "linear", "activity_regularizer": null, "bias_initializer": {"config": {}, "class_name": "Zeros"}, "filters": 64, "kernel_size": [1], "use_bias": true, "padding": "same", "bias_regularizer": null, "groups": 1, "bias_constraint": null, "dilation_rate": [1], "trainable": true, "kernel_constraint": null}, "inbound_nodes": [[["input_7", 0, 0, {}]]], "class_name": "Conv1D", "name": "conv1d_90"}, {"config": {"noise_shape": null, "name": "dropout_83", "dtype": "float32", "trainable": true, "rate": 0.2, "seed": null}, "inbound_nodes": [[["activation_124", 0, 0, {}]]], "class_name": "Dropout", "name": "dropout_83"}, {"config": {"constants": {}, "dtype": "float32", "node_def": {"op": "AddV2", "attr": {"T": {"type": "DT_FLOAT"}}, "input": ["conv1d_90/BiasAdd", "dropout_83/cond/Identity"], "name": "AddV2_41"}, "trainable": true, "name": "AddV2_41"}, "inbound_nodes": [[["conv1d_90", 0, 0, {}], ["dropout_83", 0, 0, {}]]], "class_name": "TensorFlowOpLayer", "name": "tf_op_layer_AddV2_41"}, {"config": {"trainable": true, "dtype": "float32", "name": "activation_125", "activation": "relu"}, "inbound_nodes": [[["tf_op_layer_AddV2_41", 0, 0, {}]]], "class_name": "Activation", "name": "activation_125"}, {"config": {"kernel_regularizer": null, "name": "conv1d_91", "data_format": "channels_last", "strides": [1], "dtype": "float32", "kernel_initializer": {"config": {"mean": 0.0, "seed": 42, "stddev": 0.01}, "class_name": "RandomNormal"}, "activation": "linear", "activity_regularizer": null, "bias_initializer": {"config": {}, "class_name": "Zeros"}, "filters": 64, "kernel_size": [3], "use_bias": true, "padding": "causal", "bias_regularizer": null, "groups": 1, "bias_constraint": null, "dilation_rate": [2], "trainable": true, "kernel_constraint": null}, "inbound_nodes": [[["activation_125", 0, 0, {}]]], "class_name": "Conv1D", "name": "conv1d_91"}, {"config": {"momentum": 0.99, "moving_mean_initializer": {"config": {}, "class_name": "Zeros"}, "scale": true, "epsilon": 0.001, "name": "batch_normalization_84", "beta_constraint": null, "moving_variance_initializer": {"config": {}, "class_name": "Ones"}, "gamma_initializer": {"config": {}, "class_name": "Ones"}, "dtype": "float32", "center": true, "axis": [2], "gamma_regularizer": null, "beta_regularizer": null, "trainable": true, "beta_initializer": {"config": {}, "class_name": "Zeros"}, "gamma_constraint": null}, "inbound_nodes": [[["conv1d_91", 0, 0, {}]]], "class_name": "BatchNormalization", "name": "batch_normalization_84"}, {"config": {"trainable": true, "dtype": "float32", "name": "activation_126", "activation": "relu"}, "inbound_nodes": [[["batch_normalization_84", 0, 0, {}]]], "class_name": "Activation", "name": "activation_126"}, {"config": {"noise_shape": null, "name": "dropout_84", "dtype": "float32", "trainable": true, "rate": 0.2, "seed": null}, "inbound_nodes": [[["activation_126", 0, 0, {}]]], "class_name": "Dropout", "name": "dropout_84"}, {"config": {"kernel_regularizer": null, "name": "conv1d_92", "data_format": "channels_last", "strides": [1], "dtype": "float32", "kernel_initializer": {"config": {"mean": 0.0, "seed": 42, "stddev": 0.01}, "class_name": "RandomNormal"}, "activation": "linear", "activity_regularizer": null, "bias_initializer": {"config": {}, "class_name": "Zeros"}, "filters": 64, "kernel_size": [3], "use_bias": true, "padding": "causal", "bias_regularizer": null, "groups": 1, "bias_constraint": null, "dilation_rate": [2], "trainable": true, "kernel_constraint": null}, "inbound_nodes": [[["dropout_84", 0, 0, {}]]], "class_name": "Conv1D", "name": "conv1d_92"}, {"config": {"momentum": 0.99, "moving_mean_initializer": {"config": {}, "class_name": "Zeros"}, "scale": true, "epsilon": 0.001, "name": "batch_normalization_85", "beta_constraint": null, "moving_variance_initializer": {"config": {}, "class_name": "Ones"}, "gamma_initializer": {"config": {}, "class_name": "Ones"}, "dtype": "float32", "center": true, "axis": [2], "gamma_regularizer": null, "beta_regularizer": null, "trainable": true, "beta_initializer": {"config": {}, "class_name": "Zeros"}, "gamma_constraint": null}, "inbound_nodes": [[["conv1d_92", 0, 0, {}]]], "class_name": "BatchNormalization", "name": "batch_normalization_85"}, {"config": {"trainable": true, "dtype": "float32", "name": "activation_127", "activation": "relu"}, "inbound_nodes": [[["batch_normalization_85", 0, 0, {}]]], "class_name": "Activation", "name": "activation_127"}, {"config": {"noise_shape": null, "name": "dropout_85", "dtype": "float32", "trainable": true, "rate": 0.2, "seed": null}, "inbound_nodes": [[["activation_127", 0, 0, {}]]], "class_name": "Dropout", "name": "dropout_85"}, {"config": {"constants": {}, "dtype": "float32", "node_def": {"op": "AddV2", "attr": {"T": {"type": "DT_FLOAT"}}, "input": ["activation_125/Relu", "dropout_85/cond/Identity"], "name": "AddV2_42"}, "trainable": true, "name": "AddV2_42"}, "inbound_nodes": [[["activation_125", 0, 0, {}], ["dropout_85", 0, 0, {}]]], "class_name": "TensorFlowOpLayer", "name": "tf_op_layer_AddV2_42"}, {"config": {"trainable": true, "dtype": "float32", "name": "activation_128", "activation": "relu"}, "inbound_nodes": [[["tf_op_layer_AddV2_42", 0, 0, {}]]], "class_name": "Activation", "name": "activation_128"}, {"config": {"kernel_regularizer": null, "name": "conv1d_93", "data_format": "channels_last", "strides": [1], "dtype": "float32", "kernel_initializer": {"config": {"mean": 0.0, "seed": 42, "stddev": 0.01}, "class_name": "RandomNormal"}, "activation": "linear", "activity_regularizer": null, "bias_initializer": {"config": {}, "class_name": "Zeros"}, "filters": 64, "kernel_size": [3], "use_bias": true, "padding": "causal", "bias_regularizer": null, "groups": 1, "bias_constraint": null, "dilation_rate": [4], "trainable": true, "kernel_constraint": null}, "inbound_nodes": [[["activation_128", 0, 0, {}]]], "class_name": "Conv1D", "name": "conv1d_93"}, {"config": {"momentum": 0.99, "moving_mean_initializer": {"config": {}, "class_name": "Zeros"}, "scale": true, "epsilon": 0.001, "name": "batch_normalization_86", "beta_constraint": null, "moving_variance_initializer": {"config": {}, "class_name": "Ones"}, "gamma_initializer": {"config": {}, "class_name": "Ones"}, "dtype": "float32", "center": true, "axis": [2], "gamma_regularizer": null, "beta_regularizer": null, "trainable": true, "beta_initializer": {"config": {}, "class_name": "Zeros"}, "gamma_constraint": null}, "inbound_nodes": [[["conv1d_93", 0, 0, {}]]], "class_name": "BatchNormalization", "name": "batch_normalization_86"}, {"config": {"trainable": true, "dtype": "float32", "name": "activation_129", "activation": "relu"}, "inbound_nodes": [[["batch_normalization_86", 0, 0, {}]]], "class_name": "Activation", "name": "activation_129"}, {"config": {"noise_shape": null, "name": "dropout_86", "dtype": "float32", "trainable": true, "rate": 0.2, "seed": null}, "inbound_nodes": [[["activation_129", 0, 0, {}]]], "class_name": "Dropout", "name": "dropout_86"}, {"config": {"kernel_regularizer": null, "name": "conv1d_94", "data_format": "channels_last", "strides": [1], "dtype": "float32", "kernel_initializer": {"config": {"mean": 0.0, "seed": 42, "stddev": 0.01}, "class_name": "RandomNormal"}, "activation": "linear", "activity_regularizer": null, "bias_initializer": {"config": {}, "class_name": "Zeros"}, "filters": 64, "kernel_size": [3], "use_bias": true, "padding": "causal", "bias_regularizer": null, "groups": 1, "bias_constraint": null, "dilation_rate": [4], "trainable": true, "kernel_constraint": null}, "inbound_nodes": [[["dropout_86", 0, 0, {}]]], "class_name": "Conv1D", "name": "conv1d_94"}, {"config": {"momentum": 0.99, "moving_mean_initializer": {"config": {}, "class_name": "Zeros"}, "scale": true, "epsilon": 0.001, "name": "batch_normalization_87", "beta_constraint": null, "moving_variance_initializer": {"config": {}, "class_name": "Ones"}, "gamma_initializer": {"config": {}, "class_name": "Ones"}, "dtype": "float32", "center": true, "axis": [2], "gamma_regularizer": null, "beta_regularizer": null, "trainable": true, "beta_initializer": {"config": {}, "class_name": "Zeros"}, "gamma_constraint": null}, "inbound_nodes": [[["conv1d_94", 0, 0, {}]]], "class_name": "BatchNormalization", "name": "batch_normalization_87"}, {"config": {"trainable": true, "dtype": "float32", "name": "activation_130", "activation": "relu"}, "inbound_nodes": [[["batch_normalization_87", 0, 0, {}]]], "class_name": "Activation", "name": "activation_130"}, {"config": {"noise_shape": null, "name": "dropout_87", "dtype": "float32", "trainable": true, "rate": 0.2, "seed": null}, "inbound_nodes": [[["activation_130", 0, 0, {}]]], "class_name": "Dropout", "name": "dropout_87"}, {"config": {"constants": {}, "dtype": "float32", "node_def": {"op": "AddV2", "attr": {"T": {"type": "DT_FLOAT"}}, "input": ["activation_128/Relu", "dropout_87/cond/Identity"], "name": "AddV2_43"}, "trainable": true, "name": "AddV2_43"}, "inbound_nodes": [[["activation_128", 0, 0, {}], ["dropout_87", 0, 0, {}]]], "class_name": "TensorFlowOpLayer", "name": "tf_op_layer_AddV2_43"}, {"config": {"trainable": true, "dtype": "float32", "name": "activation_131", "activation": "relu"}, "inbound_nodes": [[["tf_op_layer_AddV2_43", 0, 0, {}]]], "class_name": "Activation", "name": "activation_131"}, {"config": {"kernel_regularizer": null, "name": "conv1d_95", "data_format": "channels_last", "strides": [1], "dtype": "float32", "kernel_initializer": {"config": {"mean": 0.0, "seed": 42, "stddev": 0.01}, "class_name": "RandomNormal"}, "activation": "linear", "activity_regularizer": null, "bias_initializer": {"config": {}, "class_name": "Zeros"}, "filters": 64, "kernel_size": [3], "use_bias": true, "padding": "causal", "bias_regularizer": null, "groups": 1, "bias_constraint": null, "dilation_rate": [8], "trainable": true, "kernel_constraint": null}, "inbound_nodes": [[["activation_131", 0, 0, {}]]], "class_name": "Conv1D", "name": "conv1d_95"}, {"config": {"momentum": 0.99, "moving_mean_initializer": {"config": {}, "class_name": "Zeros"}, "scale": true, "epsilon": 0.001, "name": "batch_normalization_88", "beta_constraint": null, "moving_variance_initializer": {"config": {}, "class_name": "Ones"}, "gamma_initializer": {"config": {}, "class_name": "Ones"}, "dtype": "float32", "center": true, "axis": [2], "gamma_regularizer": null, "beta_regularizer": null, "trainable": true, "beta_initializer": {"config": {}, "class_name": "Zeros"}, "gamma_constraint": null}, "inbound_nodes": [[["conv1d_95", 0, 0, {}]]], "class_name": "BatchNormalization", "name": "batch_normalization_88"}, {"config": {"trainable": true, "dtype": "float32", "name": "activation_132", "activation": "relu"}, "inbound_nodes": [[["batch_normalization_88", 0, 0, {}]]], "class_name": "Activation", "name": "activation_132"}, {"config": {"noise_shape": null, "name": "dropout_88", "dtype": "float32", "trainable": true, "rate": 0.2, "seed": null}, "inbound_nodes": [[["activation_132", 0, 0, {}]]], "class_name": "Dropout", "name": "dropout_88"}, {"config": {"kernel_regularizer": null, "name": "conv1d_96", "data_format": "channels_last", "strides": [1], "dtype": "float32", "kernel_initializer": {"config": {"mean": 0.0, "seed": 42, "stddev": 0.01}, "class_name": "RandomNormal"}, "activation": "linear", "activity_regularizer": null, "bias_initializer": {"config": {}, "class_name": "Zeros"}, "filters": 64, "kernel_size": [3], "use_bias": true, "padding": "causal", "bias_regularizer": null, "groups": 1, "bias_constraint": null, "dilation_rate": [8], "trainable": true, "kernel_constraint": null}, "inbound_nodes": [[["dropout_88", 0, 0, {}]]], "class_name": "Conv1D", "name": "conv1d_96"}, {"config": {"momentum": 0.99, "moving_mean_initializer": {"config": {}, "class_name": "Zeros"}, "scale": true, "epsilon": 0.001, "name": "batch_normalization_89", "beta_constraint": null, "moving_variance_initializer": {"config": {}, "class_name": "Ones"}, "gamma_initializer": {"config": {}, "class_name": "Ones"}, "dtype": "float32", "center": true, "axis": [2], "gamma_regularizer": null, "beta_regularizer": null, "trainable": true, "beta_initializer": {"config": {}, "class_name": "Zeros"}, "gamma_constraint": null}, "inbound_nodes": [[["conv1d_96", 0, 0, {}]]], "class_name": "BatchNormalization", "name": "batch_normalization_89"}, {"config": {"trainable": true, "dtype": "float32", "name": "activation_133", "activation": "relu"}, "inbound_nodes": [[["batch_normalization_89", 0, 0, {}]]], "class_name": "Activation", "name": "activation_133"}, {"config": {"noise_shape": null, "name": "dropout_89", "dtype": "float32", "trainable": true, "rate": 0.2, "seed": null}, "inbound_nodes": [[["activation_133", 0, 0, {}]]], "class_name": "Dropout", "name": "dropout_89"}, {"config": {"constants": {}, "dtype": "float32", "node_def": {"op": "AddV2", "attr": {"T": {"type": "DT_FLOAT"}}, "input": ["activation_131/Relu", "dropout_89/cond/Identity"], "name": "AddV2_44"}, "trainable": true, "name": "AddV2_44"}, "inbound_nodes": [[["activation_131", 0, 0, {}], ["dropout_89", 0, 0, {}]]], "class_name": "TensorFlowOpLayer", "name": "tf_op_layer_AddV2_44"}, {"config": {"trainable": true, "dtype": "float32", "name": "activation_134", "activation": "relu"}, "inbound_nodes": [[["tf_op_layer_AddV2_44", 0, 0, {}]]], "class_name": "Activation", "name": "activation_134"}, {"config": {"kernel_regularizer": null, "name": "conv1d_97", "data_format": "channels_last", "strides": [1], "dtype": "float32", "kernel_initializer": {"config": {"mean": 0.0, "seed": 42, "stddev": 0.01}, "class_name": "RandomNormal"}, "activation": "linear", "activity_regularizer": null, "bias_initializer": {"config": {}, "class_name": "Zeros"}, "filters": 64, "kernel_size": [3], "use_bias": true, "padding": "causal", "bias_regularizer": null, "groups": 1, "bias_constraint": null, "dilation_rate": [16], "trainable": true, "kernel_constraint": null}, "inbound_nodes": [[["activation_134", 0, 0, {}]]], "class_name": "Conv1D", "name": "conv1d_97"}, {"config": {"momentum": 0.99, "moving_mean_initializer": {"config": {}, "class_name": "Zeros"}, "scale": true, "epsilon": 0.001, "name": "batch_normalization_90", "beta_constraint": null, "moving_variance_initializer": {"config": {}, "class_name": "Ones"}, "gamma_initializer": {"config": {}, "class_name": "Ones"}, "dtype": "float32", "center": true, "axis": [2], "gamma_regularizer": null, "beta_regularizer": null, "trainable": true, "beta_initializer": {"config": {}, "class_name": "Zeros"}, "gamma_constraint": null}, "inbound_nodes": [[["conv1d_97", 0, 0, {}]]], "class_name": "BatchNormalization", "name": "batch_normalization_90"}, {"config": {"trainable": true, "dtype": "float32", "name": "activation_135", "activation": "relu"}, "inbound_nodes": [[["batch_normalization_90", 0, 0, {}]]], "class_name": "Activation", "name": "activation_135"}, {"config": {"noise_shape": null, "name": "dropout_90", "dtype": "float32", "trainable": true, "rate": 0.2, "seed": null}, "inbound_nodes": [[["activation_135", 0, 0, {}]]], "class_name": "Dropout", "name": "dropout_90"}, {"config": {"kernel_regularizer": null, "name": "conv1d_98", "data_format": "channels_last", "strides": [1], "dtype": "float32", "kernel_initializer": {"config": {"mean": 0.0, "seed": 42, "stddev": 0.01}, "class_name": "RandomNormal"}, "activation": "linear", "activity_regularizer": null, "bias_initializer": {"config": {}, "class_name": "Zeros"}, "filters": 64, "kernel_size": [3], "use_bias": true, "padding": "causal", "bias_regularizer": null, "groups": 1, "bias_constraint": null, "dilation_rate": [16], "trainable": true, "kernel_constraint": null}, "inbound_nodes": [[["dropout_90", 0, 0, {}]]], "class_name": "Conv1D", "name": "conv1d_98"}, {"config": {"momentum": 0.99, "moving_mean_initializer": {"config": {}, "class_name": "Zeros"}, "scale": true, "epsilon": 0.001, "name": "batch_normalization_91", "beta_constraint": null, "moving_variance_initializer": {"config": {}, "class_name": "Ones"}, "gamma_initializer": {"config": {}, "class_name": "Ones"}, "dtype": "float32", "center": true, "axis": [2], "gamma_regularizer": null, "beta_regularizer": null, "trainable": true, "beta_initializer": {"config": {}, "class_name": "Zeros"}, "gamma_constraint": null}, "inbound_nodes": [[["conv1d_98", 0, 0, {}]]], "class_name": "BatchNormalization", "name": "batch_normalization_91"}, {"config": {"trainable": true, "dtype": "float32", "name": "activation_136", "activation": "relu"}, "inbound_nodes": [[["batch_normalization_91", 0, 0, {}]]], "class_name": "Activation", "name": "activation_136"}, {"config": {"noise_shape": null, "name": "dropout_91", "dtype": "float32", "trainable": true, "rate": 0.2, "seed": null}, "inbound_nodes": [[["activation_136", 0, 0, {}]]], "class_name": "Dropout", "name": "dropout_91"}, {"config": {"constants": {}, "dtype": "float32", "node_def": {"op": "AddV2", "attr": {"T": {"type": "DT_FLOAT"}}, "input": ["activation_134/Relu", "dropout_91/cond/Identity"], "name": "AddV2_45"}, "trainable": true, "name": "AddV2_45"}, "inbound_nodes": [[["activation_134", 0, 0, {}], ["dropout_91", 0, 0, {}]]], "class_name": "TensorFlowOpLayer", "name": "tf_op_layer_AddV2_45"}, {"config": {"trainable": true, "dtype": "float32", "name": "activation_137", "activation": "relu"}, "inbound_nodes": [[["tf_op_layer_AddV2_45", 0, 0, {}]]], "class_name": "Activation", "name": "activation_137"}, {"config": {"kernel_regularizer": null, "name": "conv1d_99", "data_format": "channels_last", "strides": [1], "dtype": "float32", "kernel_initializer": {"config": {"mean": 0.0, "seed": 42, "stddev": 0.01}, "class_name": "RandomNormal"}, "activation": "linear", "activity_regularizer": null, "bias_initializer": {"config": {}, "class_name": "Zeros"}, "filters": 64, "kernel_size": [3], "use_bias": true, "padding": "causal", "bias_regularizer": null, "groups": 1, "bias_constraint": null, "dilation_rate": [32], "trainable": true, "kernel_constraint": null}, "inbound_nodes": [[["activation_137", 0, 0, {}]]], "class_name": "Conv1D", "name": "conv1d_99"}, {"config": {"momentum": 0.99, "moving_mean_initializer": {"config": {}, "class_name": "Zeros"}, "scale": true, "epsilon": 0.001, "name": "batch_normalization_92", "beta_constraint": null, "moving_variance_initializer": {"config": {}, "class_name": "Ones"}, "gamma_initializer": {"config": {}, "class_name": "Ones"}, "dtype": "float32", "center": true, "axis": [2], "gamma_regularizer": null, "beta_regularizer": null, "trainable": true, "beta_initializer": {"config": {}, "class_name": "Zeros"}, "gamma_constraint": null}, "inbound_nodes": [[["conv1d_99", 0, 0, {}]]], "class_name": "BatchNormalization", "name": "batch_normalization_92"}, {"config": {"trainable": true, "dtype": "float32", "name": "activation_138", "activation": "relu"}, "inbound_nodes": [[["batch_normalization_92", 0, 0, {}]]], "class_name": "Activation", "name": "activation_138"}, {"config": {"noise_shape": null, "name": "dropout_92", "dtype": "float32", "trainable": true, "rate": 0.2, "seed": null}, "inbound_nodes": [[["activation_138", 0, 0, {}]]], "class_name": "Dropout", "name": "dropout_92"}, {"config": {"kernel_regularizer": null, "name": "conv1d_100", "data_format": "channels_last", "strides": [1], "dtype": "float32", "kernel_initializer": {"config": {"mean": 0.0, "seed": 42, "stddev": 0.01}, "class_name": "RandomNormal"}, "activation": "linear", "activity_regularizer": null, "bias_initializer": {"config": {}, "class_name": "Zeros"}, "filters": 64, "kernel_size": [3], "use_bias": true, "padding": "causal", "bias_regularizer": null, "groups": 1, "bias_constraint": null, "dilation_rate": [32], "trainable": true, "kernel_constraint": null}, "inbound_nodes": [[["dropout_92", 0, 0, {}]]], "class_name": "Conv1D", "name": "conv1d_100"}, {"config": {"momentum": 0.99, "moving_mean_initializer": {"config": {}, "class_name": "Zeros"}, "scale": true, "epsilon": 0.001, "name": "batch_normalization_93", "beta_constraint": null, "moving_variance_initializer": {"config": {}, "class_name": "Ones"}, "gamma_initializer": {"config": {}, "class_name": "Ones"}, "dtype": "float32", "center": true, "axis": [2], "gamma_regularizer": null, "beta_regularizer": null, "trainable": true, "beta_initializer": {"config": {}, "class_name": "Zeros"}, "gamma_constraint": null}, "inbound_nodes": [[["conv1d_100", 0, 0, {}]]], "class_name": "BatchNormalization", "name": "batch_normalization_93"}, {"config": {"trainable": true, "dtype": "float32", "name": "activation_139", "activation": "relu"}, "inbound_nodes": [[["batch_normalization_93", 0, 0, {}]]], "class_name": "Activation", "name": "activation_139"}, {"config": {"noise_shape": null, "name": "dropout_93", "dtype": "float32", "trainable": true, "rate": 0.2, "seed": null}, "inbound_nodes": [[["activation_139", 0, 0, {}]]], "class_name": "Dropout", "name": "dropout_93"}, {"config": {"constants": {}, "dtype": "float32", "node_def": {"op": "AddV2", "attr": {"T": {"type": "DT_FLOAT"}}, "input": ["activation_137/Relu", "dropout_93/cond/Identity"], "name": "AddV2_46"}, "trainable": true, "name": "AddV2_46"}, "inbound_nodes": [[["activation_137", 0, 0, {}], ["dropout_93", 0, 0, {}]]], "class_name": "TensorFlowOpLayer", "name": "tf_op_layer_AddV2_46"}, {"config": {"trainable": true, "dtype": "float32", "name": "activation_140", "activation": "relu"}, "inbound_nodes": [[["tf_op_layer_AddV2_46", 0, 0, {}]]], "class_name": "Activation", "name": "activation_140"}, {"config": {"kernel_regularizer": null, "name": "conv1d_101", "data_format": "channels_last", "strides": [1], "dtype": "float32", "kernel_initializer": {"config": {"mean": 0.0, "seed": 42, "stddev": 0.01}, "class_name": "RandomNormal"}, "activation": "linear", "activity_regularizer": null, "bias_initializer": {"config": {}, "class_name": "Zeros"}, "filters": 64, "kernel_size": [3], "use_bias": true, "padding": "causal", "bias_regularizer": null, "groups": 1, "bias_constraint": null, "dilation_rate": [64], "trainable": true, "kernel_constraint": null}, "inbound_nodes": [[["activation_140", 0, 0, {}]]], "class_name": "Conv1D", "name": "conv1d_101"}, {"config": {"momentum": 0.99, "moving_mean_initializer": {"config": {}, "class_name": "Zeros"}, "scale": true, "epsilon": 0.001, "name": "batch_normalization_94", "beta_constraint": null, "moving_variance_initializer": {"config": {}, "class_name": "Ones"}, "gamma_initializer": {"config": {}, "class_name": "Ones"}, "dtype": "float32", "center": true, "axis": [2], "gamma_regularizer": null, "beta_regularizer": null, "trainable": true, "beta_initializer": {"config": {}, "class_name": "Zeros"}, "gamma_constraint": null}, "inbound_nodes": [[["conv1d_101", 0, 0, {}]]], "class_name": "BatchNormalization", "name": "batch_normalization_94"}, {"config": {"trainable": true, "dtype": "float32", "name": "activation_141", "activation": "relu"}, "inbound_nodes": [[["batch_normalization_94", 0, 0, {}]]], "class_name": "Activation", "name": "activation_141"}, {"config": {"noise_shape": null, "name": "dropout_94", "dtype": "float32", "trainable": true, "rate": 0.2, "seed": null}, "inbound_nodes": [[["activation_141", 0, 0, {}]]], "class_name": "Dropout", "name": "dropout_94"}, {"config": {"kernel_regularizer": null, "name": "conv1d_102", "data_format": "channels_last", "strides": [1], "dtype": "float32", "kernel_initializer": {"config": {"mean": 0.0, "seed": 42, "stddev": 0.01}, "class_name": "RandomNormal"}, "activation": "linear", "activity_regularizer": null, "bias_initializer": {"config": {}, "class_name": "Zeros"}, "filters": 64, "kernel_size": [3], "use_bias": true, "padding": "causal", "bias_regularizer": null, "groups": 1, "bias_constraint": null, "dilation_rate": [64], "trainable": true, "kernel_constraint": null}, "inbound_nodes": [[["dropout_94", 0, 0, {}]]], "class_name": "Conv1D", "name": "conv1d_102"}, {"config": {"momentum": 0.99, "moving_mean_initializer": {"config": {}, "class_name": "Zeros"}, "scale": true, "epsilon": 0.001, "name": "batch_normalization_95", "beta_constraint": null, "moving_variance_initializer": {"config": {}, "class_name": "Ones"}, "gamma_initializer": {"config": {}, "class_name": "Ones"}, "dtype": "float32", "center": true, "axis": [2], "gamma_regularizer": null, "beta_regularizer": null, "trainable": true, "beta_initializer": {"config": {}, "class_name": "Zeros"}, "gamma_constraint": null}, "inbound_nodes": [[["conv1d_102", 0, 0, {}]]], "class_name": "BatchNormalization", "name": "batch_normalization_95"}, {"config": {"trainable": true, "dtype": "float32", "name": "activation_142", "activation": "relu"}, "inbound_nodes": [[["batch_normalization_95", 0, 0, {}]]], "class_name": "Activation", "name": "activation_142"}, {"config": {"noise_shape": null, "name": "dropout_95", "dtype": "float32", "trainable": true, "rate": 0.2, "seed": null}, "inbound_nodes": [[["activation_142", 0, 0, {}]]], "class_name": "Dropout", "name": "dropout_95"}, {"config": {"constants": {}, "dtype": "float32", "node_def": {"op": "AddV2", "attr": {"T": {"type": "DT_FLOAT"}}, "input": ["activation_140/Relu", "dropout_95/cond/Identity"], "name": "AddV2_47"}, "trainable": true, "name": "AddV2_47"}, "inbound_nodes": [[["activation_140", 0, 0, {}], ["dropout_95", 0, 0, {}]]], "class_name": "TensorFlowOpLayer", "name": "tf_op_layer_AddV2_47"}, {"config": {"trainable": true, "dtype": "float32", "name": "activation_143", "activation": "relu"}, "inbound_nodes": [[["tf_op_layer_AddV2_47", 0, 0, {}]]], "class_name": "Activation", "name": "activation_143"}, {"config": {"kernel_regularizer": null, "name": "conv1d_103", "data_format": "channels_last", "strides": [1], "dtype": "float32", "kernel_initializer": {"config": {"mean": 0.0, "seed": 42, "stddev": 0.01}, "class_name": "RandomNormal"}, "activation": "linear", "activity_regularizer": null, "bias_initializer": {"config": {}, "class_name": "Zeros"}, "filters": 64, "kernel_size": [3], "use_bias": true, "padding": "causal", "bias_regularizer": null, "groups": 1, "bias_constraint": null, "dilation_rate": [128], "trainable": true, "kernel_constraint": null}, "inbound_nodes": [[["activation_143", 0, 0, {}]]], "class_name": "Conv1D", "name": "conv1d_103"}, {"config": {"momentum": 0.99, "moving_mean_initializer": {"config": {}, "class_name": "Zeros"}, "scale": true, "epsilon": 0.001, "name": "batch_normalization_96", "beta_constraint": null, "moving_variance_initializer": {"config": {}, "class_name": "Ones"}, "gamma_initializer": {"config": {}, "class_name": "Ones"}, "dtype": "float32", "center": true, "axis": [2], "gamma_regularizer": null, "beta_regularizer": null, "trainable": true, "beta_initializer": {"config": {}, "class_name": "Zeros"}, "gamma_constraint": null}, "inbound_nodes": [[["conv1d_103", 0, 0, {}]]], "class_name": "BatchNormalization", "name": "batch_normalization_96"}, {"config": {"trainable": true, "dtype": "float32", "name": "activation_144", "activation": "relu"}, "inbound_nodes": [[["batch_normalization_96", 0, 0, {}]]], "class_name": "Activation", "name": "activation_144"}, {"config": {"noise_shape": null, "name": "dropout_96", "dtype": "float32", "trainable": true, "rate": 0.2, "seed": null}, "inbound_nodes": [[["activation_144", 0, 0, {}]]], "class_name": "Dropout", "name": "dropout_96"}, {"config": {"kernel_regularizer": null, "name": "conv1d_104", "data_format": "channels_last", "strides": [1], "dtype": "float32", "kernel_initializer": {"config": {"mean": 0.0, "seed": 42, "stddev": 0.01}, "class_name": "RandomNormal"}, "activation": "linear", "activity_regularizer": null, "bias_initializer": {"config": {}, "class_name": "Zeros"}, "filters": 64, "kernel_size": [3], "use_bias": true, "padding": "causal", "bias_regularizer": null, "groups": 1, "bias_constraint": null, "dilation_rate": [128], "trainable": true, "kernel_constraint": null}, "inbound_nodes": [[["dropout_96", 0, 0, {}]]], "class_name": "Conv1D", "name": "conv1d_104"}, {"config": {"momentum": 0.99, "moving_mean_initializer": {"config": {}, "class_name": "Zeros"}, "scale": true, "epsilon": 0.001, "name": "batch_normalization_97", "beta_constraint": null, "moving_variance_initializer": {"config": {}, "class_name": "Ones"}, "gamma_initializer": {"config": {}, "class_name": "Ones"}, "dtype": "float32", "center": true, "axis": [2], "gamma_regularizer": null, "beta_regularizer": null, "trainable": true, "beta_initializer": {"config": {}, "class_name": "Zeros"}, "gamma_constraint": null}, "inbound_nodes": [[["conv1d_104", 0, 0, {}]]], "class_name": "BatchNormalization", "name": "batch_normalization_97"}, {"config": {"trainable": true, "dtype": "float32", "name": "activation_145", "activation": "relu"}, "inbound_nodes": [[["batch_normalization_97", 0, 0, {}]]], "class_name": "Activation", "name": "activation_145"}, {"config": {"noise_shape": null, "name": "dropout_97", "dtype": "float32", "trainable": true, "rate": 0.2, "seed": null}, "inbound_nodes": [[["activation_145", 0, 0, {}]]], "class_name": "Dropout", "name": "dropout_97"}, {"config": {"constants": {}, "dtype": "float32", "node_def": {"op": "AddV2", "attr": {"T": {"type": "DT_FLOAT"}}, "input": ["activation_143/Relu", "dropout_97/cond/Identity"], "name": "AddV2_48"}, "trainable": true, "name": "AddV2_48"}, "inbound_nodes": [[["activation_143", 0, 0, {}], ["dropout_97", 0, 0, {}]]], "class_name": "TensorFlowOpLayer", "name": "tf_op_layer_AddV2_48"}, {"config": {"trainable": true, "dtype": "float32", "name": "activation_146", "activation": "relu"}, "inbound_nodes": [[["tf_op_layer_AddV2_48", 0, 0, {}]]], "class_name": "Activation", "name": "activation_146"}, {"config": {"constants": {"1": [0, -1, 0], "2": [0, 0, 0], "3": [1, 1, 1]}, "dtype": "float32", "node_def": {"op": "StridedSlice", "attr": {"T": {"type": "DT_FLOAT"}, "shrink_axis_mask": {"i": "2"}, "end_mask": {"i": "5"}, "ellipsis_mask": {"i": "0"}, "begin_mask": {"i": "5"}, "new_axis_mask": {"i": "0"}, "Index": {"type": "DT_INT32"}}, "input": ["activation_146/Relu", "strided_slice_6/begin", "strided_slice_6/end", "strided_slice_6/strides"], "name": "strided_slice_6"}, "trainable": true, "name": "strided_slice_6"}, "inbound_nodes": [[["activation_146", 0, 0, {}]]], "class_name": "TensorFlowOpLayer", "name": "tf_op_layer_strided_slice_6"}, {"config": {"kernel_regularizer": null, "name": "dense_6", "activation": "linear", "activity_regularizer": null, "kernel_constraint": null, "dtype": "float32", "bias_initializer": {"config": {}, "class_name": "Zeros"}, "bias_regularizer": null, "use_bias": true, "units": 1, "bias_constraint": null, "trainable": true, "kernel_initializer": {"config": {"mean": 0.0, "seed": 42, "stddev": 0.01}, "class_name": "RandomNormal"}}, "inbound_nodes": [[["tf_op_layer_strided_slice_6", 0, 0, {}]]], "class_name": "Dense", "name": "dense_6"}]}, "keras_version": "2.4.0", "backend": "tensorflow", "class_name": "Functional"}